…
15/15 - 51s - loss: 0.8849 - accuracy: 0.6614 - val_loss: 1.1756 - val_accuracy: 0.5109
Epoch 18/20
15/15 - 52s - loss: 0.8505 - accuracy: 0.6822 - val_loss: 1.1911 - val_accuracy: 0.5109
Epoch 19/20
15/15 - 51s - loss: 0.8395 - accuracy: 0.6792 - val_loss: 1.2172 - val_accuracy: 0.5082
Epoch 20/20
15/15 - 53s - loss: 0.8186 - accuracy: 0.6764 - val_loss: 1.2107 - val_accuracy: 0.5054
Model: "sequential_1"
_________________________________________________________________
Layer (type)                 Output Shape              Param #   
=================================================================
conv2d_4 (Conv2D)            (None, 100, 100, 32)      2432      
_________________________________________________________________
max_pooling2d_3 (MaxPooling2 (None, 50, 50, 32)        0         
_________________________________________________________________
dropout_3 (Dropout)          (None, 50, 50, 32)        0         
_________________________________________________________________
conv2d_5 (Conv2D)            (None, 50, 50, 64)        18496     
_________________________________________________________________
conv2d_6 (Conv2D)            (None, 50, 50, 64)        36928     
_________________________________________________________________
max_pooling2d_4 (MaxPooling2 (None, 25, 25, 64)        0         
_________________________________________________________________
dropout_4 (Dropout)          (None, 25, 25, 64)        0         
_________________________________________________________________
conv2d_7 (Conv2D)            (None, 25, 25, 128)       73856     
_________________________________________________________________
max_pooling2d_5 (MaxPooling2 (None, 13, 13, 128)       0         
_________________________________________________________________
dropout_5 (Dropout)          (None, 13, 13, 128)       0         
_________________________________________________________________
flatten_1 (Flatten)          (None, 21632)             0         
_________________________________________________________________
dense_3 (Dense)              (None, 512)               11076096  
_________________________________________________________________
dense_4 (Dense)              (None, 256)               131328    
_________________________________________________________________
dense_5 (Dense)              (None, 5)                 1285      
=================================================================
Total params: 11,340,421
Trainable params: 11,340,421
Non-trainable params: 0
_________________________________________________________________



图表现在默认显示于绘图窗格上。要想让其也在中断行中显示，请在绘图窗格选项菜单中取消勾选“禁用行内绘图”。 


 reading the images:./testimages\test1.jpg
shape of data: (1, 100, 100, 3)
WARNING:tensorflow:From E:\tensorflow\flower-photos\flower_photos.py:119: Sequential.predict_classes (from tensorflow.python.keras.engine.sequential) is deprecated and will be removed after 2021-01-01.
…
